data.pth (torch, 6655 bytes, 6 tensors)

l1.weight f4 [8, 91]
000000 6c 62 0a 3f df 6c b2 3e ee b1 2a 3d d8 0f 3e 3d
       0.5405643 0.34848687 0.041673593 0.04640183
000010 cd 20 a4 3e 8b 30 8e 3e 0a 70 85 3e 75 c8 09 3f
       0.32056275 0.2777141 0.26062042 0.538215
000020 89 5f 11 3f f4 7b ec 3e 26 9d 48 3c 3f 01 4a 3e
       0.567864 0.4618832 0.012244498 0.19727038
000030 b4 93 2b 39 cd ce 64 3e 68 85 1c 3d ad cb cc be
       0.00016362855 0.22344513 0.038213164 -0.39999142
000040 ac 0d ea be 7c 67 8e 3c 08 8b c5 be 38 36 af be
       -0.45713556 0.01738333 -0.38582635 -0.34221053
000050 eb af ee bc 2e 11 54 3c 93 93 cf 3d 32 fc bb 3d
       -0.029136619 0.012943549 0.101355694 0.09178962
000060 d8 94 70 bd b9 4c 41 be 4b 57 08 3d 4b 29 03 3d
       -0.0587357 -0.18876924 0.033286374 0.032021802
000070 c4 01 8c 3d b8 43 80 3e 75 2b 0e bd d8 c7 15 bd
       0.06836274 0.25051665 -0.034709413 -0.03656754
000080 00 54 3e be 60 83 dd 3a 55 f5 1c be 01 9a 85 be
       -0.18586731 0.0016900115 -0.15327962 -0.26094058
000090 33 58 0a 3e ed fd 2f 3d d5 48 4d bd 42 b4 28 be
       0.13510208 0.042966772 -0.050118286 -0.16475013
0000a0 36 78 a5 be ae d3 79 be 33 1b cd 3d 02 2e 8b 3e
       -0.32318276 -0.24397156 0.100149535 0.2718354
0000b0 9f 6b ae bd 86 2d 8a be e6 67 e6 3d 0c 97 08 bd
       -0.08516621 -0.26987857 0.11250286 -0.033347175
0000c0 88 eb 39 be 62 b4 ab 3c 9f 80 fb bd 6b 5d 4c be
       -0.18156254 0.020960037 -0.12280392 -0.19957511
0000d0 9a fb 2a be 02 bf fb bd ed 59 a2 3d 91 f7 2b be
       -0.16697541 -0.12292291 0.07927308 -0.16793658
0000e0 e9 95 90 be f6 95 28 3d 51 87 19 3e 21 e7 26 bf
       -0.28239372 0.04115864 0.14993025 -0.65196425
0000f0 a2 20 1f bf d2 74 05 3e c8 a7 9a 3d 43 5a f4 bc
       -0.6215917 0.13032845 0.07551533 -0.029828196
000100 8a 9c 8f 3e 87 3b aa 3e f1 e3 63 be bb b0 01 3e
       0.28049117 0.3324854 -0.22254921 0.12665074
000110 6c 1f 2a be 79 3e 88 3e a1 b8 23 bd 57 96 bd 3d
       -0.16613549 0.26610163 -0.039970998 0.09257191
000120 c7 16 fd bd 96 bf 0a 3e 31 47 44 3e b6 8e 1b 3d
       -0.1235786 0.13549647 0.19167782 0.037977897
000130 14 7e 7e 3d f7 c3 ea bd ea c2 c4 bd 2f 89 77 be
       0.062131956 -0.114631586 -0.096074894 -0.24173425
000140 1e b0 8f bd 93 fe c9 bd 8f 8b 82 3c 81 ed 53 3d
       -0.070160136 -0.09863009 0.015935687 0.051740173
000150 02 20 23 bc 8e 4f 7c be 7d 5c 80 3e d5 7e e0 be
       -0.009956362 -0.24639723 0.25070563 -0.43846765
000160 c1 b7 c0 be f9 d9 fb be 5e 98 84 3e 6d ca 27 3f
       -0.37640193 -0.49189737 0.25897497 0.6554325
000170 cb 68 44 be 11 9b 8c be 71 e5 a0 3d cf 39 8e 3e
       -0.191806 -0.27462056 0.078562625 0.2777848
000180 35 2c c1 3e 0d ba ae 3e 97 26 f8 3e 54 d0 ff 3e
       0.3772904 0.3412632 0.48466942 0.4996363
000190 74 3b 01 3f 88 90 20 bf 6f 1d bf be a4 43 e8 bb
       0.50481343 -0.6272054 -0.37327144 -0.0070881415
0001a0 42 0f dd be 0e 98 1f bf 01 05 0c 3f f2 a8 05 3f
       -0.43175703 -0.6234139 0.54695135 0.52210915
0001b0 d0 e9 43 bd 73 c5 28 3f 2d 6a 1e 3f c0 4a fe 3d
       -0.047830403 0.65926284 0.6188076 0.12416601
0001c0 ef 3e 79 be 36 20 45 be 89 15 c6 3d 54 8f a1 be
       -0.24340414 -0.19250569 0.09672076 -0.31554663
0001d0 e6 6c 39 3e f4 ca 58 be 58 81 96 be bd 4c e2 be
       0.18107948 -0.2117117 -0.29395556 -0.44199172
0001e0 63 3e d1 be a5 3d 80 be c4 6b dd 3d 2d 0f 10 be
       -0.4086791 -0.2504703 0.1081157 -0.14068289
0001f0 8d 73 cf 3e b4 90 00 3c d9 3e ed 3d 9e 7a 2c bd
       0.40517846 0.007847 0.11584253 -0.042109124
000200 d2 d5 9b 3e 12 19 8a 3d 2a 6c 35 3e 48 07 82 3d
       0.3043657 0.06743063 0.17717043 0.06349045
000210 fa 9e e8 3d 23 b5 19 be 43 14 9c 3e a1 c5 58 3e
       0.113584474 -0.15010504 0.30484208 0.2116914
000220 2e 72 71 bd 29 da e1 3d 58 2e f7 3d 93 58 b4 bc
       -0.05894678 0.11027939 0.12069386 -0.022014892
000230 6a 7b 98 3d 36 a8 88 be 5b 87 13 be d3 b3 69 be
       0.07445414 -0.26690835 -0.14407103 -0.22822504
000240 8e 5d 03 bd a3 36 b3 bd 91 16 61 be b7 75 89 be
       -0.032071643 -0.087506555 -0.21981265 -0.26847622
000250 d4 37 b6 bd 2a 6a 47 bd f2 b2 86 bd b9 7c d2 bc
       -0.08897367 -0.04868523 -0.065771 -0.025694238
000260 82 0f 3b be 23 71 7e 3c e3 b7 22 be 8f a8 0f 3f
       -0.18267635 0.015529904 -0.1589046 0.56116575
000270 88 d0 d4 be 7c 55 a6 3d 53 1b 9b bd 95 ac 46 be
       -0.41565347 0.081217736 -0.07573571 -0.19401772
000280 5a 97 d2 3e 5a 99 4d 3e 12 75 72 be 49 9e be be
       0.41131097 0.2007803 -0.23677471 -0.37230137
000290 cf c3 d3 be 96 31 07 3f 71 08 eb bd f3 d8 be bd
       -0.41360328 0.5281004 -0.114762194 -0.093187235
0002a0 aa e5 dc 3d a8 50 75 be c0 f9 e9 3d ea 4c dc bb
       0.107859924 -0.23956549 0.11424589 -0.006723036
0002b0 a4 98 17 be e2 73 76 bd 9f 3c 9f 3d 74 4d f1 bd
       -0.14804322 -0.06016911 0.077752344 -0.11782351
0002c0 35 ff 42 3e 80 a1 2d be 5c 5c c5 bd 56 c2 05 be
       0.19042666 -0.16956139 -0.09636757 -0.13062415
0002d0 39 55 2b bd d1 e3 01 3f ce 31 11 3f 83 22 f8 3d
       -0.04182932 0.50738245 0.5671662 0.121159576
0002e0 d2 e0 35 3e 54 f9 ce 3c 94 da dd 3c 1f 0d 74 bd
       0.17761543 0.025265373 0.027081765 -0.059582826
0002f0 d3 52 93 be d0 1c 0c 3f 54 a9 61 3e 30 e8 6b 3e
       -0.28774127 0.54731464 0.2203725 0.23037791
000300 6c 3a e1 3e b6 75 e3 3e 80 ef a6 bc 83 e2 18 3f
       0.43989885 0.44425744 -0.020377874 0.5972063
000310 6f 56 b6 3e ef 2c 83 be 34 95 8b be 79 f1 4f bd
       0.3561282 -0.2562022 -0.2726227 -0.050767396
000320 6c 56 be bd d5 9f 8e be 86 21 0d 3d 3e d0 07 3f
       -0.092938274 -0.27856317 0.0344558 0.5305213
000330 61 1a 2b 3e cf cf ca 3d f1 63 22 3f fe b0 35 3e
       0.16709282 0.099029176 0.6343375 0.17743298
000340 dc dd f1 3d 6a 30 ad 3e 0d ef db 3e 87 32 25 3f
       0.118098944 0.33826 0.4295582 0.64530224
000350 85 96 12 3e 4a 28 72 3d fc 83 10 3f 9f 8d 44 3c
       0.14315231 0.059120454 0.5645139 0.011996656
000360 94 77 4c be cc 05 db bc c7 6d d1 3d 3a 86 c2 bd
       -0.1996749 -0.026736163 0.102260165 -0.09498258
000370 7c 6d 15 3c d4 9e 29 be 33 86 fe bd 44 d2 4f be
       0.009120341 -0.16564494 -0.1242794 -0.20295054
000380 b7 30 cb 3d 0a 18 86 be d7 32 19 3e b4 2e 03 bc
       0.09921401 -0.26190215 0.149608 -0.00800674
000390 3b 7c 28 bc 33 40 39 be 70 95 fe 3d 1b 61 93 3d
       -0.010283525 -0.18090896 0.12430847 0.07196256
0003a0 d7 91 45 be 03 8a 81 be 35 fe a4 be 40 ba 5b bd
       -0.19293915 -0.25300607 -0.32225195 -0.05364442
0003b0 de 61 f0 bc e7 62 c2 be 05 95 94 be db 61 f5 3d
       -0.029343542 -0.37966082 -0.29019943 0.11981555
0003c0 d0 c2 fb 3d 29 4e 1e bf 97 e4 22 bf 67 73 c8 3d
       0.12293017 -0.6183801 -0.6363005 0.09787636
0003d0 32 9f 3b bd 17 9d 09 3f 58 09 43 3f 53 26 17 3f
       -0.045806117 0.53755325 0.7618613 0.59042853
0003e0 f1 4d ab 3d 04 07 3d bd d3 c9 11 3f ee 7a 21 3f
       0.083644755 -0.04614927 0.56948584 0.630782
0003f0 86 24 98 3d c2 fd f1 3d f8 58 00 3f 18 26 05 3f
       0.07428841 0.118159786 0.50135756 0.5201125

l1.bias f4 [8]
000000 1a 3e 3a 3f 1f 4d 21 3f d1 07 be 3e 93 c0 03 3f
       0.7275101 0.630083 0.37115338 0.5146572
000010 14 c9 3b 3f 71 39 08 3f 40 87 5d 3f ee b1 b0 3e
       0.73353696 0.5321265 0.865345 0.3451075

l2.weight f4 [8, 8]
000000 84 a9 5f 3f 7e ee a0 3f 9c a5 bd 3e 92 13 a0 be
       0.87368035 1.2572782 0.37040412 -0.3126493
000010 e4 c3 c4 be d8 76 5d 3f 8a 5c 2e 3f de 1d ac 3d
       -0.38430703 0.86509466 0.68109953 0.08404134
000020 ef ff 35 bf d8 44 f3 bc 39 a2 6b be a6 bb 0c 3f
       -0.7109365 -0.029695913 -0.23011102 0.5497383
000030 64 d5 27 3f 8c b2 40 3e ac e3 80 bf a4 28 5b 3f
       0.65559983 0.1881811 -1.006948 0.8560889
000040 c7 e8 60 bf 27 b1 d3 3e 91 ba 19 be 8e ef da 3e
       -0.8785519 0.41346094 -0.15012576 0.4276089
000050 62 eb 36 bf cc cd 2f 3e 0e 12 f0 3d 23 bd 27 3f
       -0.71452916 0.17168349 0.11722194 0.65522975
000060 4e 75 00 bf 1b ba ab be a1 c4 de be 03 ce 7c 3f
       -0.5017899 -0.33540425 -0.4350939 0.9875185
000070 c5 9e 64 3f 99 d3 86 3d b3 41 73 3f 73 a8 be be
       0.89304763 0.06583328 0.95022124 -0.37237892
000080 56 d8 2b bf 3c 30 3b 3f 43 1c 50 be 04 cb b2 3e
       -0.6712698 0.73120475 -0.20323281 0.34920514
000090 87 1e 37 bf 2c d0 c4 be 49 02 8d 3f 94 a8 a3 3e
       -0.71530956 -0.38440073 1.1016322 0.31964552
0000a0 76 11 06 3e d1 04 e3 3d b3 28 ad bc c8 7f d1 3e
       0.13092598 0.11084903 -0.021137571 0.40917802
0000b0 a5 62 5d bf 20 91 d8 be b9 4e 20 3f b9 db d7 bd
       -0.86478645 -0.42298222 0.6262012 -0.10539956
0000c0 80 82 29 3f c3 49 45 3f af 41 d3 be 3c 8d 57 bd
       0.6621475 0.77065676 -0.4126105 -0.052624926
0000d0 4a f2 c6 3e f0 f6 ae 3f bf f6 f5 be ed 98 0a 3f
       0.38856727 1.3669109 -0.48039815 0.54139596
0000e0 b0 8a 7d 3f fc fc 5c bf 84 45 94 3f fe 34 21 3f
       0.99039745 -0.86323524 1.1583714 0.62971485
0000f0 7c 95 09 3f 3a 7a 83 bf da 4d 33 3f 5d 53 2c 3f
       0.5374372 -1.0271676 0.7004067 0.673147

l2.bias f4 [8]
000000 d4 51 0f 3f 27 1e d1 3e 6b 1a a7 3c 07 44 44 3f
       0.55984235 0.40843317 0.02039834 0.766663
000010 e1 6d c5 be 4c 12 35 be 40 2c e5 3d e9 b1 57 3e
       -0.38560393 -0.17682761 0.11190081 0.21063961

l3.weight f4 [9, 8]
000000 28 c5 3e bd 23 87 28 bf e5 1a 6d bf 5f 24 49 3f
       -0.04657474 -0.658312 -0.9261916 0.7857112
000010 e9 a9 d3 bf 14 73 bf 39 51 ad 8b bf 5c b0 00 3f
       -1.6536227 0.000365161 -1.0912267 0.50269103
000020 9f 27 68 3f d6 37 0a bf 3d a8 e2 be 63 91 94 bf
       0.90685457 -0.5399145 -0.4426898 -1.1606869
000030 4c 82 a5 bf 5f 5f 82 be 98 7a 45 3f fe ba 58 be
       -1.2930388 -0.25463387 0.7714019 -0.21165082
000040 9a c5 a3 be 6d f7 d1 3e ad ed 4a 3d 15 0b a2 bf
       -0.31986696 0.41009083 0.04954307 -1.2659632
000050 74 5c 33 bf 01 89 e2 be 90 45 8f be 17 ed ca 3e
       -0.7006295 -0.4424515 -0.2798276 0.3963401
000060 bc b2 71 bd 7e d1 21 3f 71 d0 ca 3e bc 0a 79 bf
       -0.059008345 0.63210285 0.39612153 -0.97282004
000070 a9 bf 19 be 73 ac 06 be 83 57 48 3e 78 85 3f bf
       -0.15014519 -0.13151722 0.19564633 -0.7481303
000080 0e 2e ef be 9a d9 5f be d6 8f 95 3d ab b7 24 bf
       -0.46714824 -0.21860352 0.07302825 -0.64342755
000090 d3 ce 78 3e 20 f1 d4 3d af 21 bd bf 6e 4a 0e 3f
       0.24297647 0.103975534 -1.4775904 0.5558232
0000a0 b2 58 af bf 72 cd 89 3e a7 31 2f 3e df 88 bd 3e
       -1.3698943 0.26914555 0.17108785 0.37018487
0000b0 5e e0 4b 3f b1 c3 00 3f 01 53 6c bf 85 80 b8 bd
       0.7963923 0.502986 -0.92314154 -0.09008888
0000c0 21 6b 2b bf 02 61 0d 3f 46 23 c3 be 9f ee 3a 3f
       -0.6696034 0.5522615 -0.3811285 0.73020357
0000d0 10 5e b0 bf 48 83 d1 3c e2 74 1a 3e c6 bd 84 bf
       -1.3778706 0.025575295 0.1508365 -1.0370414
0000e0 ac a4 ee 3e fd 95 4c bf a8 eb 96 3e ef cc d7 3e
       0.4661001 -0.79916364 0.29476666 0.4214854
0000f0 23 01 ef 3e 1a fa 64 be 4c 6c 66 be 9a f3 a5 bf
       0.46680555 -0.22361031 -0.2250225 -1.2964966
000100 f7 ff 12 3f 44 b3 3f bf 65 ba 47 bf a8 7c 08 bf
       0.5742182 -0.7488291 -0.7801879 -0.5331521
000110 f9 29 d4 3d 4e a5 20 3f 59 78 c9 bf 1a 2f fa bc
       0.10359568 0.62752235 -1.5739852 -0.030540038

l3.bias f4 [9]
000000 70 9c 3a 3f 25 3b cb 3e aa f9 b0 bd a9 a9 ec be
       0.72894955 0.3969356 -0.0864137 -0.4622319
000010 04 c1 04 bf 84 91 f0 be 5d ac c8 3c 6f be a9 bd
       -0.5185702 -0.4698602 0.024496252 -0.082882755
000020 0c cc 6b bd
       -0.05756764
